.config/google-chrome/OptimizationGuidePredictionModels/2b8a5fdf-ca83-4ce8-b886-854609138c0f/model.tflite (tflite, 407748 bytes, 166 tensors)

context_transformer_0/bottleneck_input/norm/add f4 [32]
00000000: e555 b3bd 66a4 cfbd 44c4 1abd c622 3ebd
00000010: e18f 363d d2d2 6a3d 6e80 5abd c66c babd
00000020: 275f c1bd 8c94 34bc 6fdd 63bd fe27 b1bc
00000030: 287f f8bc 2c11 893d 1546 5d3d 2a3d ddbd
00000040: 20a1 223d ee0f 57bd 6480 0abe b905 8abd
00000050: af91 953b 62e1 78bd 76bf 33bd ea84 a9bd
00000060: d63a 38bd 40f7 f23c 77e1 e1bd a4d3 96bd
00000070: 0489 833d 78ea af3c 4805 9b3d b152 0bbd
-0.087566175 -0.101387784 -0.03778483 -0.04641988 0.044570807 0.05732996 -0.053345136 -0.09102778
-0.09441977 -0.011021744 -0.055631097 -0.021625515 -0.03033407 0.066927284 0.054021914 -0.10802682
0.039704442 -0.052505426 -0.1352554 -0.06739373 0.004564486 -0.060761817 -0.043883763 -0.082773045
-0.044977985 0.029658914 -0.11029332 -0.07364586 0.06422618 0.021474108 0.07569367 -0.034014408

context_transformer_1/bottleneck_input/norm/add f4 [32]
00000000: b4ad dbbd d661 ec3d 28e0 cb3d f1dc b1bd
00000010: faa5 bdbd 04b6 1fbe c25e 00bc 5429 9d3d
00000020: 8628 f1bd e71e 8d3d 1c59 1cbc b83e 8e3d
00000030: e49b 00bb 8498 79bd a0ee 043e 4cf6 98bd
00000040: e572 75bd 46c7 46be 44d0 863d 63ff fdbc
00000050: 783c 893d 9603 753b dc69 373d 0035 e138
00000060: 2297 263e 679c 0a3e d987 89bd fbb7 05bd
00000070: 172e cfbc c012 0dbe 1d3d c2bd b52f 1b3d
-0.107264906 0.11542098 0.09954864 -0.08684719 -0.09260173 -0.15596777 -0.007835092 0.07673898
-0.11775307 0.0689066 -0.00954273 0.069455564 -0.0019624168 -0.060936466 0.12981653 -0.074688524
-0.059924025 -0.19411954 0.06582692 -0.031005567 0.067009866 0.003738617 0.04477869 0.00010738708
0.1626859 0.13536225 -0.06715364 -0.03264616 -0.025290532 -0.13776684 -0.09484313 0.037887294

mention_transformer_0/bottleneck_input/norm/add f4 [32]
00000000: 143d 06be 0044 32be b74f 99bb f08f 803e
00000010: 40d4 d5bd 5e72 f03b 8e3e 473e 6048 9f3d
00000020: ee72 6b3d 0f9f 433e 05b1 673b 46a1 1e3e
00000030: 74e9 a8bc aa5c f1bd 649e edbb 228d 333e
00000040: f6e5 193e 8a77 2c3e 9d69 f13b fc2a 52be
00000050: 2ca3 eebd 860e 9cbd 1a71 b1bc 51b9 49be
00000060: aeb9 f7bd 0293 83bd dd71 cbbe 23a3 e9bc
00000070: 623d e2bc 69cb 8ebd 21c7 0b3e d814 2bbe
-0.13109237 -0.17408752 -0.004678692 0.25109816 -0.10440874 0.0073378524 0.19457456 0.07777476
0.057482652 0.19103645 0.0035353315 0.15491208 -0.020619132 -0.117852524 -0.0072515476 0.17534307
0.1502913 0.16842476 0.0073673264 -0.2052421 -0.11652216 -0.076199576 -0.021660376 -0.19699599
-0.120959625 -0.06424524 -0.39735308 -0.028520172 -0.02761716 -0.06972391 0.1365018 -0.1670717

mention_transformer_1/bottleneck_input/norm/add f4 [32]
00000000: 4e4f 1ebf 5add 8d3e 6083 1bba 1ad6 703e
00000010: 2750 95be 8483 53bd a02d 28be f60f 733e
00000020: 0140 0fbf 4c97 dfbe 9715 a4bd 1ff4 a3be
00000030: 0682 6f3f c558 873e 137b f03e b308 103e
00000040: 4e4b 19bd 8008 ccbc f808 7ebe 1ef8 a2be
00000050: 6133 323e 4828 86bc 0243 8ebe d267 ce3d
00000060: a112 7fbe ee99 d43e 4a19 003f 88e4 233d
00000070: ad6b 463e ad26 7ebe f0eb 02be 1aa6 1f3d
-0.6183976 0.2770794 -0.0005932357 0.23519173 -0.29162714 -0.051639095 -0.16423655 0.23736557
-0.5595704 -0.43670118 -0.080119304 -0.32022187 0.93557775 0.26434913 0.46968898 0.14065818
-0.03742533 -0.024906397 -0.24808109 -0.31829923 0.17402412 -0.01637663 -0.27785498 0.10078396
-0.2490945 0.4152369 0.5003859 0.040012866 0.19377013 -0.24819441 -0.12785316 0.038976766

context_transformer_0/attention/value/add;context_transformer_0/attention/value/einsum/Einsum;context_transformer_0/attention/value/add/ReadVariableOp/resource f4 [32]
00000000: 6d86 90bd ba2b 6e3d ae4f bf3d d71c c7bd
00000010: 7673 193d 6c6b 123c 353a e33d 8f79 ae3d
00000020: 2526 78bb 0b52 553d 8e23 dfbc e744 743c
00000030: 0e62 88bb c8af 133d 6d22 9f3d b491 6e3c
00000040: 1810 bcbd 13ca 10bc 5307 07be d75a b0bc
00000050: 4981 103d 5ca1 873d abe2 fa3c b453 df3b
00000060: d06a a53d ac61 09bd 2967 fb3c c24e 2a3d
00000070: 2275 84bc cb3d 42bc ab94 a63d 2e26 0a3d
-0.0705689 0.05814717 0.093413696 -0.09722298 0.037463628 0.008936744 0.110950865 0.08519279
-0.0037864533 0.052080195 -0.027238633 0.014909006 -0.0041620797 0.03605631 0.07770238 0.0145611055
-0.09182757 -0.008837241 -0.13186388 -0.02152769 0.035279546 0.06622574 0.030625662 0.006815398
0.080770135 -0.033540413 0.030688839 0.041579016 -0.016169135 -0.011855553 0.08133825 0.033727817

context_transformer_0/bottleneck_input/norm/mul f4 [32, 32]
00000000: 082a 7d3e 2fad ffb9 33c4 843e 70a4 ad3b
00000010: 76c4 dbbd b9b6 07bf ce37 fabe 2632 61be
00000020: 2281 00bf 3b8e 8f3e ddd6 b9bc fc7d 06be
00000030: 74a3 bc3e f568 92be 949a e1bc d760 b23e
00000040: 6654 a93e 1bd4 02be 3e9a de3c 67c8 81be
00000050: ea8f 8ebe 0df4 12be ef49 3cbd 6615 c63d
00000060: 2353 9dbd 66b1 173e 98c8 be3d 24b1 913d
00000070: 5640 64be 7a29 7dbe 38a4 7c3e 42df f33d
00000080: 4419 c13c e28e aa3d 0b4e 1a3b 2d72 91bd
00000090: e9d9 0abe ad31 493e 4a6c ed3d 820a c0be
000000a0: 672b d13c 8030 da3d 4d05 30bd 3ed1 043e
000000b0: d241 e33d 7d13 5f3e 14af 283e a715 c9bd
000000c0: 0417 cfbe 037a 9dbd 610d dbbb d4bb 713e
000000d0: a357 c3bc 4d85 8bbe d530 90be b0f3 4b3e
000000e0: c18d 523d 29ac 13be 2389 cebd 0d02 b2bd
000000f0: 9550 de3c d7e9 2d3e 1866 22bd d8df 083e
00000100: aaf6 083d 14f8 1fbd 79c8 42be 42d7 2b3e
00000110: f1a7 cfbd b83d a6bd f678 80bb d7c9 e9bc
00000120: 4231 37bd 2989 92be 2739 70be c28e 8c3e
00000130: 257f ccbd 6d91 df3d 2827 333e ca09 723e
00000140: a705 b43e 7ce2 f2bd b1c4 a7bd 42e6 9bbe
00000150: c09b 75be 4ce5 e7bc 7ad2 88be c759 bc3e
00000160: 2410 6fbe 687a 80be 74a4 f43b 7935 233e
00000170: 8bc2 d3be 77f4 8dbe 3ad6 3f3c f8f7 6abe
00000180: 1d7f c43c 1fe0 4e3e 8dd4 9b3d 3647 1b3e
00000190: 9224 023d 3609 99be 4f9b 393e d7c8 55be
000001a0: f07f 64bd 5e46 933c 6f88 0bbe 7a88 5ebd
000001b0: 15b0 ca3d ed2d 96bd 7259 21be 2314 acbe
000001c0: c8a6 133e f573 f8bd 312f c33e fb6b c6be
000001d0: 8976 01be 2149 9b3c 4a16 6fbd 721e e7be
000001e0: 58cb 36be 7755 29bd 984a 6e3e fe1e c43d
000001f0: bc0e f33e a136 db3d dd7b 053e 1c84 3dbe
00000200: 68b3 8d3d 945f 54bd 2748 0a3e 1952 be3d
00000210: e119 4fbe e3db 893d cb0d 51be 5733 ae3d
00000220: 49ac e7bc 1e1d 26be 3609 273e d834 813d
00000230: 4cd8 843d 8bb2 24bd 93c1 253e c2ea 37bd
00000240: 151c cfbd 9c16 473e d624 2bbd 339a b9bc
00000250: 7277 2d3e 9e0b 533e 5ab1 1c3c 8794 f0bd
00000260: 4d89 8cbd a851 0c3e eede 103e 5783 76be
00000270: f2b7 df3d f2ea df3d ded4 06be 8798 b2bd
00000280: 7b45 2f3e 3921 8dbe 2b80 c0be 74f7 9bbd
00000290: 7ed0 1bbe 3dcb aa3e 38b1 02bd 08f0 603e
000002a0: b2c0 873d 89b8 77be 91c2 7c3d f136 913e
000002b0: 3840 a0be 1c80 c73e 3a3a 153e 08dc 87be
000002c0: 068c ca3d cc84 45bd 771f fdbd a648 11be
000002d0: 0454 673d 47f3 a1be b6f8 93be b85a 093e
000002e0: c86d d53d 8d6c bfbe 80b3 063e a2b2 0e3e
000002f0: 9367 263e e4fd c3be d05d 26bd f233 adbd
00000300: 9540 be3d 5122 403e 9c8e 853d 8218 17be
00000310: 238b 993d 8658 62bd 3318 b93d ba70 f63a
00000320: c5dd 1ebe 87d4 8fba 2bcb 13be cbbb bdbb
00000330: fbd4 713d 7f2b 8a3e 8649 a7bd f98e a73d
00000340: 8012 883e 85ac 0e3e c924 23bd 126e 063d
00000350: ea9a d2bc 40f5 7f3e efad debd 43f7 f83d
00000360: 56ea 17be a038 a83c 4226 2b3d 4476 20bd
00000370: 3912 383e 3f6c 04bd daed 383e 772d 4bbe
00000380: cafc 6abc 4180 c4be 9907 eabd e680 543e
00000390: d0df 203e 0fa7 1b3d 1853 e13e b683 f03c
000003a0: 3344 dd3d 40aa 4bbd b776 133e 4c5c 403e
000003b0: 97fc f13e 2bcd 76be 1ef1 aabe 12ec 7fbe
000003c0: 6593 bb3d 727f 0bbf bebc 84be 9820 693d
000003d0: dc4c 8bbc 028b 9dbd 3cb2 5d3e fdb5 85be
000003e0: 5dc8 c5be fb59 cbbd 7128 513c 3db2 b13e
000003f0: 228a 2a3f 121a a93d 6775 453d 0bf5 e23d
0.24723065 -0.00048766422 0.25930938 0.0052991435 -0.10730831 -0.5301319 -0.488707 -0.21991786
-0.5019704 0.280382 -0.022685463 -0.13133997 0.36843455 -0.285957 -0.027539529 0.34839508
0.33072203 -0.12776224 0.027173158 -0.25348207 -0.27844173 -0.1435091 -0.045968946 0.0967205
-0.07681873 0.14813766 0.09315604 0.07113865 -0.22290167 -0.24722853 0.2467202 0.119078174
0.023571618 0.08328034 0.0023545052 -0.071018554 -0.13559689 0.19647856 0.1159292 -0.37508017
0.025533391 0.10653782 -0.042973805 0.12970445 0.110965386 0.21784778 0.16473037 -0.09818583
-0.40447247 -0.076892875 -0.0066849445 0.23606807 -0.0238455 -0.27250138 -0.28162256 0.19917178
0.05140472 -0.14421143 -0.100847505 -0.086917974 0.027138034 0.16983734 -0.039648145 0.1336664
0.033438362 -0.039054945 -0.19021787 0.16781333 -0.10139454 -0.08117241 -0.0039206697 -0.028538628
-0.04472471 -0.2862027 -0.23459302 0.27452666 -0.099851884 0.1091641 0.17495406 0.23636547
0.35160562 -0.11859605 -0.08191813 -0.3044911 -0.23985195 -0.02830758 -0.2672308 0.36787245
-0.23346001 -0.2509339 0.0074658934 0.15938367 -0.41359362 -0.27725574 0.01170879 -0.22946155
0.023986394 0.20202683 0.076089 0.15163884 0.031773157 -0.2988984 0.18125652 -0.20877396
-0.055786073 0.01797789 -0.13626264 -0.054329373 0.09896866 -0.073329784 -0.15756777 -0.33609113
0.14419091 -0.12131492 0.38121942 -0.38754258 -0.12642874 0.018955769 -0.058370866 -0.45140415
-0.17851007 -0.04134127 0.23270643 0.09576224 0.4747218 0.10703779 0.13035531 -0.18507427
0.06918985 -0.051848963 0.13504086 0.09293003 -0.20224716 0.06731393 -0.20415418 0.08505886
-0.028280394 -0.16222045 0.16312107 0.06308907 0.06486568 -0.040209334 0.16187124 -0.044901617
-0.10112778 0.19442219 -0.041783176 -0.022656536 0.16940096 0.206099 0.009563768 -0.11747079
-0.068621255 0.13703024 0.14147541 -0.2407354 0.10923757 0.10933484 -0.1316714 -0.087204985
0.17116348 -0.2756441 -0.37597784 -0.07615557 -0.15216252 0.33358184 -0.03190729 0.21966565
0.066285506 -0.24191488 0.06170899 0.2836223 -0.31298995 0.38964927 0.14572993 -0.26535058
0.098899886 -0.048222348 -0.12359517 -0.1418787 0.056476608 -0.31630918 -0.2890069 0.13413513
0.1042133 -0.37387505 0.13154411 0.1393533 0.16250448 -0.3827964 -0.04061681 -0.084571734
0.09289662 0.1876309 0.06521341 -0.14755443 0.07497241 -0.055260204 0.09037819 0.0018801906
-0.15514286 -0.0010973372 -0.14432971 -0.005790209 0.059041005 0.2698631 -0.0816832 0.08181567
0.26576614 0.13932998 -0.039830003 0.032819815 -0.025708634 0.24995899 -0.10873019 0.121565364
-0.14835486 0.020534813 0.041784532 -0.039175287 0.17975701 -0.032329794 0.18059483 -0.19841562
-0.014342496 -0.383791 -0.114272304 0.20752296 0.15710378 0.038001116 0.44008708 0.02935968
0.108040236 -0.04972291 0.14400755 0.18785208 0.47263023 -0.24101703 -0.33387083 -0.24992397
0.09158973 -0.5449134 -0.2592525 0.05691585 -0.017004423 -0.07692529 0.21650022 -0.2611541
-0.38629428 -0.09929272 0.01276599 0.34706298 0.66617024 0.08256926 0.048207667 0.110818945

context_transformer_0/kq_shared_bottleneck/norm/mul;context_transformer_0/kq_shared_bottleneck/norm/add;context_transformer_0/attention/key/einsum/Einsum;context_transformer_0/attention/key/add;context_transformer_0/attention/value/einsum/Einsum;context_transformer_0/attention/key/add/ReadVariableOp/resource f4 [32]
00000000: d30e 613d 5d22 2c3d 0ee0 283e b651 6e3e
00000010: bdfb 863d f163 5cbd 2727 943d 6474 30be
00000020: d44e d7bd 9806 afbc 7af4 d6bd 186e c43d
00000030: c38c 07be 4858 80bb a15d e9bd deb5 ff3d
00000040: 53b7 0a3e 35ef 0b3e 3469 0f3e 98f2 b03e
00000050: 2f35 f43c f257 023e ad32 d4bd 1089 77bd
00000060: 34dc 2bbd c086 d5bd fbab 7fbd c7d0 39bd
00000070: 7cb7 953e 103a e0bd 6c92 f8bd 4a06 0a3d
0.054945778 0.04202496 0.1649172 0.23273358 0.06590984 -0.05380625 0.0723403 -0.172319
-0.10513082 -0.021365449 -0.10495849 0.09591311 -0.1323729 -0.003916774 -0.113948114 0.1248586
0.13546495 0.13665469 0.14004976 0.34560084 0.029810516 0.12728861 -0.10361228 -0.060433447
-0.04195805 -0.10426092 -0.062419873 -0.04536512 0.2924155 -0.109485745 -0.12137303 0.033697404

context_transformer_0/kq_shared_bottleneck/norm/mul;context_transformer_0/kq_shared_bottleneck/norm/add;context_transformer_0/attention/key/einsum/Einsum;context_transformer_0/attention/key/add;context_transformer_0/attention/value/einsum/Einsum;context_transformer_0/attention/key/add/ReadVariableOp/resource1 f4 [32, 32]
00000000: eb2b e73c e2f6 f0bd 0787 843e 33b6 9d3e
00000010: 19b5 e5bd f49d 9c3e 8be5 933c d3c6 ca3c
00000020: 55df 183f 88a1 8f3e 716c bcbd eb7d 5ebd
00000030: 35fd 003f d7e9 963d 03d2 47be 2e1d 0d3f
00000040: 687e b6be a311 b13d d3df 5dbd 04c4 67be
00000050: 32cc 9dbe e77c 90bd 2046 1b3f 0e30 e4be
00000060: 5a03 a1be 52e1 2f3f f1eb 003e 05f6 6c3f
00000070: 0d20 bc3b 7e6d ccbe ac85 863e f9e8 d7be
00000080: 54ac f9be 33a3 0dbd 15bd 8fbe aa3f 29be
00000090: b87a c53d 4482 14bd 2efe 20be 54b9 f1bc
000000a0: 0e84 51be a071 21be a3df 063e 1618 60be
000000b0: 022a e7be 4b0f d0be 6176 f5bd 851d 88be
000000c0: fd42 883c 63b9 603d 75f1 bfbd 988b 4fbe
000000d0: 9a77 23bd e2d8 01be 37c9 163e de35 713e
000000e0: a3d1 6d3e a106 59be 1208 3ebe 9237 94bc
000000f0: 9695 10be 022b aebe 305b c8bd c8ec 213e
00000100: aebd 48bf caa7 babe b820 0a3e 50dd 9f3c
00000110: fc74 183e e43c 073f dc1e 1bbe 9f08 41be
00000120: 77f8 a3be cd51 26be ce94 f4bd b2dc 01bf
00000130: e1e6 54bb 0430 02be 9fca e2be cda4 ee3d
00000140: 3a06 94be 0432 e4bd 8f8c 0ebd 7657 a7be
00000150: 4698 143e 166d 66be 405f 413f 381c 5fbd
00000160: 6544 993e 6ec9 673e bcd3 17bf 734d c53e
00000170: 34c6 60be 2a5d 63bd d25e debd 229f 6ebe
00000180: 9520 6a3d 33e7 79bd 14b1 a23e 6ef7 dc3e
00000190: 4cab 9fbe 3109 cdbe 1686 59bc 41e7 883e
000001a0: f598 cabe e8c3 bfbd 6a0f ccbe 08e3 923d
000001b0: b7fe 903d e9fd ec3d 4f76 433c 369d 4b3e
000001c0: af6e bc3e aabf 6ebe 686b c63e c322 8f3e
000001d0: e87f 733d 2a99 143d 18da d93d 1734 b9be
000001e0: 620f b93e 4d23 d43d 4e75 bfbe 1760 8dbd
000001f0: 57c2 4a3e d09d 91bd bc2e 913e bcac 103e
00000200: 474c 503d a02a 323d 4e1e df3d 49ec b93e
00000210: 26f1 c2be 167b b6be e811 e73b 6b95 aa3e
00000220: 6f43 623b 5bd1 5a3d 8ba7 cabd e838 343e
00000230: f64f 39bd c158 dcbd 9d6e ad3d 4031 2c3e
00000240: 7432 d63d 5687 2dbb 6f69 013e bcfa e43d
00000250: c993 f9bd a1f1 9b3d 72ac 173e 4bbf c2be
00000260: 427f 2bbc 1e2e 253d 1e0d adbd f671 4b3e
00000270: 0989 c03d 9be7 bcbe ae78 7e3e f66d 24be
00000280: 2890 cd3d b2e0 993e aa70 01bd 5fda 513e
00000290: f93a ebbe 05fb eabe 679d 0fbd 10e1 d53e
000002a0: ebe3 883e b057 e53d 4beb e53d 3880 8a3e
000002b0: ddfb 0abe 15a7 cfbd b452 193e 9846 373d
000002c0: 5691 0c3e 2e63 173e 6944 5bbd 65d7 243e
000002d0: 838d a3be aac5 773d 92bf 9cbc 9a57 afbe
000002e0: 72ce 7abe 7372 86bd eae6 273d b553 363e
000002f0: d821 51bc 614c 0ebf b650 a03e 55a4 a8be
00000300: 9b01 09be 7326 90bd 1023 0ebf 2726 58be
00000310: b0bd 343e cd6f 30be 97e6 cebe ddc5 acbd
00000320: 98c8 7fbe f330 71be 00e8 ab3e 19f6 11be
00000330: fc6d 1fbf 5ff2 21bf e067 06be fc15 acbe
00000340: 5867 8d3e 0d47 523e 53c7 ebbc 872d 61bd
00000350: c50b 82be 726b b3be f688 4ebe 5c5f ef3e
00000360: 1c75 373e d55e fabe 3ad0 c2bd 8468 1c3d
00000370: 65b3 e5bd 1f43 06bf a481 9fbd a625 323f
00000380: 6813 f2bd 1fbf 18bc d583 7cbe 7385 d3be
00000390: f3f5 ad3e d2ab cd3e 7517 bcbb 1b7d a3be
000003a0: 2af2 d43e 4ec5 ef3d c87a b03e c706 1ebe
000003b0: 5519 cfbc 5601 d3bd 250b 76bd 27aa 22be
000003c0: fd2b 9cbe ac62 213e 00af a3be 9e64 66be
000003d0: 4d92 9f3c dbd2 e6bc 4711 a0bd 3364 b73e
000003e0: 5667 9abe dce0 b9bc ec5a c23e 285d c83d
000003f0: 78c6 79be c90e fd3d fcae 4dbe 1d95 6cbc
0.028219184 -0.11765839 0.25884268 0.3080307 -0.11216182 0.3058926 0.01805379 0.02475301
0.5971578 0.28052926 -0.09200371 -0.054319303 0.50386363 0.0736882 -0.19513707 0.5512265
-0.35643315 0.08645942 -0.054168534 -0.22633368 -0.3081985 -0.07055073 0.6065388 -0.44567913
-0.3144787 0.68703187 0.12590005 0.92562896 0.0057411254 -0.39927286 0.2627386 -0.42169932
-0.48764288 -0.034579467 -0.28073946 -0.16528192 0.09642547 -0.036257043 -0.15721962 -0.029507317
-0.20460531 -0.15766001 0.13171248 -0.21884188 -0.45149237 -0.40636668 -0.119854696 -0.26585022
0.016633505 0.0548643 -0.09372226 -0.20268095 -0.039908983 -0.1268039 0.14725195 0.23555705
0.23224501 -0.21193935 -0.18557766 -0.018092904 -0.14119563 -0.34017187 -0.09783018 0.15812981
-0.7841443 -0.36456138 0.13489044 0.01951471 0.14888376 0.52827287 -0.1514849 -0.18850945
-0.320255 -0.16242142 -0.11942445 -0.5072738 -0.0032486247 -0.12713629 -0.44295213 0.11652527
-0.28911 -0.11142352 -0.034802016 -0.32683915 0.14511213 -0.2250255 0.75535965 -0.05447027
0.29934993 0.22635433 -0.59307456 0.38535652 -0.21950608 -0.05550877 -0.10857929 -0.23302892
0.05715998 -0.061011504 0.31775725 0.43157524 -0.31185377 -0.40046075 -0.0132765975 0.26738933
-0.39569822 -0.09363538 -0.3985551 0.07172209 0.07079833 0.11571867 0.011930062 0.1988419
0.36803195 -0.23315302 0.3875382 0.2795621 0.059448153 0.03627888 0.10637301 -0.36172554
0.3614455 0.103582956 -0.37394184 -0.06903093 0.19800697 -0.071101785 0.28355968 0.14128393
0.050853994 0.04349768 0.10894452 0.36313084 -0.38074607 -0.35640782 0.007051695 0.33317122
0.0034525057 0.053422313 -0.098952375 0.17599833 -0.045242272 -0.10759116 0.084683634 0.16815662
0.10458842 -0.0026478372 0.12637876 0.11180636 -0.12186391 0.076144464 0.14811876 -0.3803657
-0.010467352 0.040327184 -0.084497675 0.19867691 0.094011374 -0.3689545 0.24850723 -0.16057572
0.10037261 0.3005424 -0.031601585 0.20493458 -0.4594343 -0.45894638 -0.03506222 0.41773272
0.26736388 0.11198366 0.11226519 0.27050948 -0.1357264 -0.1013929 0.14972955 0.044745058
0.13727316 0.14783928 -0.053532038 0.16097791 -0.31943902 0.06049124 -0.019134317 -0.34246522
-0.24492815 -0.06564798 0.0409917 0.17805369 -0.012764417 -0.55585295 0.31311578 -0.32937875
-0.13379519 -0.070385836 -0.5552225 -0.21108304 0.17650485 -0.17230149 -0.404103 -0.08436177
-0.24978864 -0.23553829 0.3357544 -0.14254035 -0.622772 -0.63260454 -0.13125563 -0.33610523
0.27617908 0.20534916 -0.028781569 -0.05497506 -0.25399604 -0.35042912 -0.20169434 0.4675244
0.17915767 -0.48900476 -0.09512372 0.03818561 -0.112158574 -0.5244617 -0.07788399 0.69588697
-0.11820108 -0.009322911 -0.24659665 -0.4131275 0.33976707 0.4017015 -0.005740101 -0.31931385
0.41591007 0.11707555 0.34468675 -0.15432273 -0.025280634 -0.10302989 -0.060069222 -0.1588522
-0.3050231 0.15760297 -0.31969452 -0.2249932 0.019478941 -0.028176716 -0.078157954 0.35818633
-0.30156964 -0.02269023 0.37959993 0.09783393 -0.24392116 0.12356336 -0.20086282 -0.014439848

context_transformer_0/kq_shared_bottleneck/norm/mul;context_transformer_0/kq_shared_bottleneck/norm/add;context_transformer_0/attention/query/einsum/Einsum;context_transformer_0/attention/query/add;context_transformer_0/attention/value/einsum/Einsum;context_transformer_0/attention/query/add/ReadVariableOp/resource;context_transformer_0/attention/Mul;context_transformer_0/attention/Mul/y f4 [32]
00000000: 946e 91bd a1bc ba3d dd5a bebc d6ad 76be
00000010: 7505 0bbe 2f7b 36bd f5f8 1d3e 1833 5c3e
00000020: 6bd7 01be 4812 7b3d 127e 84bd b8ef b43d
00000030: 6801 14be 72c8 273e 2508 e2bd a256 133e
00000040: e44a 953d 0cff 08be f8b6 67be a414 59be
00000050: ac75 0bbe 724c 0fbe fc78 91bd c366 9dbd
00000060: 9e5a 3c3e 42b9 a23d add7 babd c1ee f7bd
00000070: 557f 24bd 1199 4d3e 05fa 193c f00d 25be
-0.07101169 0.09118009 -0.023236686 -0.2408975 -0.135763 -0.04455107 0.15427001 0.21503866
-0.12679832 0.06129673 -0.064693585 0.08834785 -0.14453661 0.16385058 -0.1103671 0.14388517
0.07289675 -0.13378543 -0.22628391 -0.2119928 -0.13619107 -0.13994005 -0.07103154 -0.07685616
0.18393943 0.079454914 -0.09123168 -0.121060856 -0.040160496 0.20077921 0.009397988 -0.16118598

context_transformer_0/kq_shared_bottleneck/norm/mul;context_transformer_0/kq_shared_bottleneck/norm/add;context_transformer_0/attention/query/einsum/Einsum;context_transformer_0/attention/query/add;context_transformer_0/attention/value/einsum/Einsum;context_transformer_0/attention/query/add/ReadVariableOp/resource;context_transformer_0/attention/Mul;context_transformer_0/attention/Mul/y1 f4 [32, 32]
00000000: fe8a 9b3e 449e 2cbe 6631 4cbd 6e90 74bd
00000010: dca0 75bd 2c19 2e3d 0af7 50bb e2bc 8f3c
00000020: 8d00 243e b940 c03d c8f3 113c 7613 03bd
00000030: 59ca 953e 435b 343e 5a18 19be 266a 703e
00000040: 53b9 3c3d 43ac 40bd 415d 01bd 1351 fb3c
00000050: d30f 2dbe 022f 0f3d 40ec 09bc 47bd acbd
00000060: 36ae f1bd e422 813b e70b 173e c992 b83e
00000070: 630b 323d 999a efbd 3dbd 003d 5397 8e3e
00000080: ac07 8cbd bbdd b33c 6062 ebbb 7467 a63d
00000090: dfb1 833d 6ffb 573d 1c33 24be 2a22 00bd
000000a0: 5f4f 0abe 3327 f0bd 8b11 d43c 1a41 5e3d
000000b0: 4237 85bc 4986 a0bd 811c 1d3d ae09 24be
000000c0: d31b adbd adaa 7cbd 7882 ad3d a1c9 a33b
000000d0: acac 21bc a821 61be a329 723d 5219 993d
000000e0: 03de f9bb 51e2 7b3d 66bb c4bd 5e71 59bc
000000f0: 96c9 22bd 05f5 87bb 9a1f b43c 36dd 933d
00000100: f55a aebc 814a 29be acd5 65bc 1207 0dbd
00000110: 5f56 9e3c 8fff 0f3e 2326 5bbe 396f 84bd
00000120: aa50 00be 2eb9 26be 2f74 453c fb56 48bd
00000130: b2d9 973e 30c7 753e c1fc 3dbe 5478 c0bd
00000140: c5f8 843d adcb 3dbe c2c9 b3ba 21f7 3e3c
00000150: 0626 ac3d 40ac 86be 8bf7 bc3d 3c47 2e3a
00000160: 85ae 25bd a6a3 9cbd 678d dabc 2435 383e
00000170: f6d1 04be 876d 233e 4347 ffbb af33 c13d
00000180: 2220 2dbd ca39 1dbc 765f 4abc 8970 d7bd
00000190: 2c2c 3abe e7ec 9f3c 8203 51bd 3f3d 073e
000001a0: e3c3 9d3c a2ed c7bc 64bc 0b3d c9c2 a33d
000001b0: babb afbd 6e99 a43c a36d a6bd 053f 4a3d
000001c0: 7b48 71bd 02bf d2bc 0582 02be 1705 ccbd
000001d0: 1922 84bd af19 183c e730 40bc 02c8 2bbe
000001e0: 71c0 0ebd a684 76bd b081 94bd 6ef8 6abd
000001f0: ac9a 0cbd 0cb1 533d b6f5 debd 5b9d 92bd
00000200: 8230 673d 33b4 4b3c df52 173b c91a 05bd
00000210: 8a91 0dbe a6dc 0bbd 5d29 4dbd bcae 133e
00000220: 4a1b 263d a20d df3c caf3 913c b5f5 9f3d
00000230: 735c 43bd 1225 ab3a 9c82 14bd cb31 d63d
00000240: 836a 4cbd ead4 c9bc c99d 2cbd 85e8 2cbd
00000250: 7f7f 1ebe 3d2b bc3c 17f6 ebbc edb5 f8bd
00000260: c866 6d3c fe9f 8e3c dd4e 85bd 3ef9 533d
00000270: 6efb e23c 700f 7cbd e946 40bd 4a00 cb3d
00000280: ec77 9a3d 0a99 d73d ee85 613d af5e fa3c
00000290: 25a5 0dbe 9b4c edbd f0c8 5bbd ed1c 3c3e
000002a0: 886c 483d 66ae 093d 2a41 86bc 004f c13d
000002b0: 1a1d a8bd 8d7f 41bd 43e3 dd3c be53 0a3e
000002c0: 5dc9 b4bd 9401 b93c a967 313c 85b7 0e3d
000002d0: 80ac 6cbe ee50 4c3d 38a7 a4bd 4689 f6bd
000002e0: 758f 0f3d 4370 1f3e fbf7 91bd 1fd9 bb3d
000002f0: 2237 423d 5499 4dbe 7d84 bc38 c8c7 3c3e
00000300: 79c9 33be bf47 5c3d ad73 c6bd fe68 ed3d
00000310: fd09 a83d 2ed4 963d 808a 4dbe 6d9f 373c
00000320: 2ff4 bebd 60fc 9fbd 6176 673d 5b6b 683d
00000330: 242f 5bbe f19e 9fbe 0c92 623d 7f61 60be
00000340: 789b 7fbe a60a 793d 4f10 c03d add9 9dbd
00000350: a73f 6dbd 308c 87be d4d7 073e 295f ef3d
00000360: 2be5 31bd 2f8b e73d 2a3f bebd f51e 5c3d
00000370: 6805 c0bd 84ba 3cbd 0597 943c 3d3a 603d
00000380: 2a2b 393d e954 6dbc 15a9 573c 8746 b43d
00000390: d5af 453e 8fb1 1d3c f56e 6c3d c296 36be
000003a0: 9531 1cbd 1828 a33c b34f 6ebc c5bf bebd
000003b0: e451 ce3d 3a4b f1bc bc43 993d a68a 3abd
000003c0: 49d4 3b3d fbce 1d3d d3dd d23d f6b5 e83d
000003d0: b1ce 813d add9 d3bc 00db a8bb 9af9 273e
000003e0: 0292 cc3b 4a79 1a3d f510 ac3d a2de 803d
000003f0: 48ad f33c 7349 16bd d875 c13d 726c 7a3d
0.3037948 -0.16857249 -0.049851798 -0.05970805 -0.05996786 0.042504475 -0.0031885528 0.017546121
0.16015835 0.09387345 0.00890822 -0.03200098 0.29255942 0.17612939 -0.14950696 0.23477992
0.046075176 -0.04703928 -0.031583074 0.030678308 -0.16900568 0.03495694 -0.008418143 -0.08434539
-0.11800806 0.003940927 0.14750634 0.36049488 0.04346789 -0.11699409 0.03143047 0.27849826
-0.06837401 0.021956315 -0.007183358 0.08125201 0.064304106 0.05273002 -0.16035122 -0.03128258
-0.1350684 -0.11726227 0.025887271 0.054261304 -0.0162617 -0.07838113 0.03835726 -0.16019318
-0.08452573 -0.061686207 0.084721506 0.0049984013 -0.009867828 -0.21985495 0.05912174 0.074755326
-0.007625343 0.06149513 -0.09606056 -0.013271658 -0.03974303 -0.0041490817 0.021987725 0.07219927
-0.021283606 -0.16532327 -0.014027994 -0.03443057 0.019328294 0.14062332 -0.21401267 -0.064665265
-0.12530771 -0.16281578 0.012051626 -0.048911076 0.29658276 0.24001765 -0.18553449 -0.09397951
0.064927615 -0.18534727 -0.0013716745 0.0116556 0.0840569 -0.2630329 0.092269026 0.0006648188
-0.040449638 -0.07648401 -0.026678754 0.17989022 -0.12970719 0.1595975 -0.0077904775 0.09433686
-0.042266972 -0.0095962975 -0.012351861 -0.10519511 -0.18180913 0.019522144 -0.051028736 0.13206957
0.019258445 -0.024405304 0.03411521 0.07996137 -0.08580728 0.020092692 -0.0812638 0.049376506
-0.058907013 -0.025725845 -0.12744911 -0.09961908 -0.06451816 0.009283467 -0.011730409 -0.16775516
-0.034851495 -0.060185097 -0.072512984 -0.057365827 -0.034327194 0.051682517 -0.108867094 -0.071589194
0.056442745 0.0124331 0.0023090167 -0.032496247 -0.1382505 -0.034145974 -0.050088275 0.14422125
0.04055337 0.02722818 0.017816443 0.07810537 -0.04769559 0.0013057312 -0.03625737 0.10458716
-0.049906265 -0.024637658 -0.042142663 -0.042213935 -0.15478323 0.022969836 -0.028803868 -0.121440746
0.014489837 0.017410275 -0.065091826 0.051751368 0.027707782 -0.06153816 -0.046942625 0.099121645
0.075424045 0.10527237 0.055059366 0.030562727 -0.13832529 -0.11586877 -0.053658426 0.1837041
0.04893163 0.033613585 -0.016388495 0.09438896 -0.08208676 -0.047240783 0.027085906 0.13508508
-0.088274695 0.02258376 0.010827937 0.034842987 -0.23112679 0.049881868 -0.08039707 -0.120379016
0.03504892 0.15570168 -0.07127377 0.09172272 0.04741586 -0.20078021 8.9892164e-05 0.18435585
-0.17557324 0.05377936 -0.09690032 0.11592291 0.0820503 0.07364689 -0.20072365 0.011207444
-0.09323918 -0.078118086 0.05650938 0.056743007 -0.21404701 -0.3117595 0.055315062 -0.21912192
-0.2496165 0.06080117 0.093781106 -0.07707534 -0.05792203 -0.26474142 0.13265926 0.11688072
-0.043431442 0.11305844 -0.09289391 0.05374046 -0.09376031 -0.046076313 0.018138418 0.05474304
0.04520718 -0.014485576 0.013162871 0.088025145 0.19305356 0.009624853 0.057723004 -0.17830947
-0.038133223 0.01991658 -0.014545369 -0.09313921 0.10074213 -0.029454816 0.074836224 -0.04554238
0.045856748 0.03852747 0.10296216 0.11362831 0.063382514 -0.025860632 -0.00515306 0.16403809
0.0062429914 0.037713327 0.08401672 0.06292464 0.029745713 -0.03669114 0.09446305 0.061138578

context_transformer_0/ffn_layer_0/intermediate_dense/einsum/Einsum;context_transformer_0/ffn_layer_0/intermediate_dense/Relu;context_transformer_0/ffn_layer_0/intermediate_dense/add f4 [32]
00000000: c1c1 09be 12dd 28be 924e 11bf 9c72 93be
00000010: b49d adbe 0195 343d 21c9 9dbe 97ae b2bd
00000020: 61de 9ebd c7db a0be de01 36be 0d6c 6ebe
00000030: e4ec 49be 516b 98be d2ec 8ebe 046d 12be
00000040: 83e0 f7bd b65b 9bbe d0c5 b0be a7f6 16be
00000050: 131e e13d 4031 82be 964f bbbe 1549 3bbe
00000060: 332f 95be c324 8bbe e01b 4cbd d2c6 c6be
00000070: 18c4 6b3d 72d3 60be 3645 99bd 351c 60be
-0.13452817 -0.16490582 -0.56760514 -0.28798378 -0.3390938 0.044087414 -0.30817512 -0.087247066
-0.07757259 -0.31417677 -0.1777415 -0.23283406 -0.19719273 -0.29769376 -0.27915055 -0.14299399
-0.12103369 -0.30343407 -0.3452592 -0.14742528 0.10992064 -0.254282 -0.36584157 -0.18289597
-0.29137573 -0.27176484 -0.04983127 -0.38823563 0.057560056 -0.2195566 -0.07483904 -0.2188576

context_transformer_0/attention/norm/mul;context_transformer_0/attention/norm/add;context_transformer_0/ffn_layer_0/intermediate_dense/einsum/Einsum;context_transformer_0/ffn_layer_0/intermediate_dense/Relu;context_transformer_0/ffn_layer_0/intermediate_dense/add f4 [32, 32]
00000000: 84cd 51bd a0ad 82bc 8bcb 24be ea13 c8bd
00000010: 3392 643e c7a5 00be 46b8 9e3e f0b6 dd3d
00000020: 5f86 083e 5d21 4f3d 6724 2f3e ab7a ccbe
00000030: bce9 3ebe 1500 f1bc 90e0 bbbd a094 673d
00000040: 85c1 573d cf5f 3e3e f063 753e ac26 edbd
00000050: 2283 2fbe 0fa3 583e 390b 86be 0cf3 113e
00000060: 1429 e2bd 3fd7 ce3c 3e6e e43e 5f06 98be
00000070: 5afb 10bf 4711 73bd d7a8 1dbe 36cf db3d
00000080: e12b b83d 366c 64bd c80a 723d 2765 13bd
00000090: 7470 2a3e 00b6 f33c ef5c ba3e 81fd 7cbd
000000a0: b5ae 753e b83a d5bb 4337 693d 6660 48be
000000b0: 0ba3 88be acdd 083d 837b fbbd d697 233e
000000c0: 8714 833d a8c1 d73d be3d 253e 3bbd 5cbd
000000d0: 3a93 9bbe 5ee8 5fbe 7a4e 683d 0b96 703e
000000e0: fafc 91bd 3ef1 1bbe 789c 51be 3d10 273f
000000f0: 149f 8abe d878 2f3e a786 da3d a201 63be
00000100: 58c3 133d c38c 523d aca0 02bd d601 1bbd
00000110: 082c 07be 634b a4be 4145 d7bd e864 8a3e
00000120: d7a2 9d3d ea64 d5be 45e6 b23d 6c6d 92be
00000130: af3c cc3e c833 443e 339e 823d 2321 45be
00000140: 9834 37be a94d 983b 42ff 723e 0f46 ea3d
00000150: b2d2 23be 99a6 c3bd 2444 31be 983a e23e
00000160: 2c86 82be 03d5 dbbb a3d7 043e c241 d2bd
00000170: f52c 95bd 13fd 9fbe ceaa 2abe a8c5 5fbe
00000180: 3c2d b83d e014 813e 41da 713e d3f4 3a3d
00000190: c44f 65be 7736 5bbe 4c0a 373d 4fa4 c43d
000001a0: 1885 f7bd e1bb 8fbe 984f 2fbe bb64 ecbd
000001b0: 36c2 173e 431d a4be 9a6e 18be cc2e 29be
000001c0: 80dc 61be 6607 543d a0f0 883d 8958 213c
000001d0: 34a1 40be 8261 873e 2f2d 433e 2c75 e6bd
000001e0: 7f54 653e 0df4 b3be cec2 aa3e 8c10 3a3e
000001f0: 3459 01bf 4854 8ebd f87f 8bbe 2f43 5d3e
00000200: e52c e43e a19c 183e 380f ad3e b15d ddbd
00000210: 90ab e5bd 573a 013e 5113 01be 0cc5 e53e
00000220: 831a de3d 9c1e 51bc e81e 773d 4712 5e3e
00000230: 8dce d93e 5c39 ec3c 9597 0dbe c905 553e
00000240: 4672 9b3d ad1a c43d 4c69 8c3d f1be 13be
00000250: 1931 b73e 33a8 5c3e e276 d63d ad1c 7c3d
00000260: 8d5a 92bd 998f 51bd 07a4 cb3d f815 91bd
00000270: cb61 b7be 059a 7a3d a1b9 debd 8a60 653d
00000280: a5ec b93d 9801 473e 9a11 02be ccdd 83be
00000290: 95ab 643e 1830 ffbc 2223 c23e c474 98bd
000002a0: 3936 0f3d c75c a23d 2b82 173a 7bdb 91be
000002b0: 7057 8dbd a55d debe a3b4 6c3d 683e 8f3d
000002c0: ca7d 97be ec4c 153e 34c0 c4bd a20b f33d
000002d0: 9574 77be ecba 4cbd 539d 013c d5f2 22bd
000002e0: 0f0c 02be 52bf 7c3e c5ab cf3d 8649 4bbd
000002f0: 8eb5 00be c484 273e 369e fe3d 8a79 2cbe
00000300: 3796 1d3d 8ecc dc3d 2af4 22be 2054 54be
00000310: febd 38be 9343 4abe 9a44 0d3e 2b6a a53d
00000320: 7855 823c 7e83 3cbe bf8f b1bd 6933 1f3d
00000330: 7008 ce3e 2d49 12bf 19bd 283e 1627 013e
00000340: 06d2 023e f8f8 413e 1995 2f3e 703c f7b9
00000350: 6575 62be f476 0b3e 01a6 163e d86a b7bc
00000360: 3454 b53d 2fc0 1e3c 8076 11be b669 043f
00000370: aa28 dd3d e76e b13d 9d4a 16be 84e0 03be
00000380: ac2b 2dbe 9443 d53e 7cf9 b2be 3a11 08bd
00000390: b977 8d3e 3da7 cdbd ce0b 873e 5329 383d
000003a0: 5a53 00be cd37 313e a5a1 38bd 52eb cebe
000003b0: cddf 37be 2297 3fbe d2f3 613e b543 11bc
000003c0: 367c e9be aa7f 9c3d fdb5 d83c 5b5f 913d
000003d0: add9 483e 32dc d23d e4b3 a8bc 210f 0bbe
000003e0: 1c2d c73d de6d 2f3e 3ece 13bd 921a 64be
000003f0: 903b 163d 6e46 723d f713 a5bd cf83 ddbd
-0.051221386 -0.015951931 -0.1609327 -0.09769423 0.22321396 -0.12563239 0.30999964 0.10825908
0.13332509 0.050568927 0.1710373 -0.39937338 -0.1864385 -0.029418984 -0.09173691 0.056538224
0.05267479 0.18591236 0.23963904 -0.11579642 -0.17139867 0.21155952 -0.26180437 0.14252871
-0.11042991 0.025249122 0.44615358 -0.2969236 -0.5663353 -0.05934265 -0.15396439 0.10732882
0.08992744 -0.05576726 0.059092313 -0.03598514 0.1664446 0.02974987 0.36399028 -0.061765198
0.23992427 -0.006507244 0.056937467 -0.19568023 -0.26686892 0.033414528 -0.12279417 0.1597589
0.064004 0.10534984 0.16136834 -0.0538914 -0.30385762 -0.21865985 0.056715466 0.23494737
-0.071283296 -0.15228745 -0.20469844 0.6525915 -0.27074492 0.17135942 0.10670214 -0.22168592
0.036074966 0.051403772 -0.03189151 -0.037843548 -0.1320039 -0.32088766 -0.10511256 0.2703011
0.07697075 -0.41678554 0.08735327 -0.28599107 0.39890048 0.19160378 0.0637783 -0.19250922
-0.17891157 0.0046479297 0.23730186 0.11439144 -0.15998343 -0.0955326 -0.1731115 0.44185328
-0.2549299 -0.0067087426 0.12972884 -0.102664486 -0.072839655 -0.31247768 -0.1666672 -0.21852744
0.08993003 0.2521124 0.23618414 0.04564364 -0.2239371 -0.21407495 0.044687554 0.09601652
-0.120859325 -0.28073028 -0.17120206 -0.1154265 0.1482018 -0.32053575 -0.14885941 -0.16521758
-0.2205677 0.05176487 0.066865206 0.009847769 -0.18811494 0.2644158 0.19060205 -0.112528175
0.22395514 -0.35147133 0.3335175 0.18170375 -0.5052674 -0.06949669 -0.2724607 0.2160766
0.44565502 0.14903499 0.33800673 -0.10808886 -0.112143636 0.12619911 -0.12605025 0.44876897
0.108449005 -0.0127636455 0.06033221 0.2168666 0.42540398 0.028835945 -0.13827355 0.20802988
0.07590155 0.095754005 0.06856021 -0.14428307 0.35779646 0.21548538 0.10471894 0.061550785
-0.071461774 -0.051162336 0.09943395 -0.07084268 -0.35816798 0.06118204 -0.1087525 0.05600027
0.090783395 0.19434202 -0.12702027 -0.25755155 0.22331078 -0.031150863 0.3791743 -0.07444146
0.03496382 0.07927852 0.00057795894 -0.28487763 -0.06901443 -0.4343082 0.057789456 0.06994325
-0.29588157 0.14580125 -0.09606972 0.11867453 -0.24165566 -0.04998295 0.007911044 -0.039782364
-0.12699912 0.24682358 0.10140184 -0.049630664 -0.12569258 0.1635924 0.1243252 -0.16843238
0.038473334 0.10781203 -0.15913454 -0.20735216 -0.18041226 -0.1975234 0.137957 0.080768906
0.015909895 -0.18409535 -0.086699955 0.038867388 0.40240812 -0.5714291 0.16478385 0.12612566
0.1277543 0.1894263 0.1714672 -0.0004715654 -0.22115095 0.13619596 0.14711763 -0.022389814
0.08853951 0.009689375 -0.1420536 0.517238 0.10798772 0.08663731 -0.146769 -0.12878615
-0.16911191 0.4165312 -0.34955966 -0.033219554 0.27630404 -0.10041664 0.26376194 0.044961285
-0.12531796 0.17306443 -0.04507603 -0.4041391 -0.17956467 -0.18709996 0.22065666 -0.00886624
-0.45602578 0.076415375 0.026453966 0.07098266 0.19614287 0.10295905 -0.020593591 -0.1357999
0.09725401 0.17131755 -0.03608536 -0.22275761 0.036677897 0.0591492 -0.080604486 -0.10816156

context_transformer_0/ffn_layer_1/intermediate_dense/einsum/Einsum;context_transformer_0/ffn_layer_1/intermediate_dense/Relu;context_transformer_0/ffn_layer_1/intermediate_dense/add f4 [32]
00000000: d563 66bd bc29 75be 1914 8fbd 9fdf cebd
00000010: 7c52 07be 1e60 33be 2d6f 91be 6bc2 a1bd
00000020: 9ba2 2e3c 4959 46be dd64 2a3d 276c 30be
00000030: 0663 8bbe b9db b2bc d68d 0bbe 11ec 39be
00000040: 7600 16bd 1cd1 3dbe da53 b4be a9e8 9ebe
00000050: 70cd 22bc d791 123e 447a 5abe 9631 12be
00000060: 94c0 7fbe dc51 a9be 82c8 99be 49f7 6b3d
00000070: 3e15 04be 5f5b dfbd d732 86be b580 c13d
-0.05624755 -0.23941702 -0.06986255 -0.10101246 -0.13215059 -0.17517135 -0.28405133 -0.078984104
0.010658885 -0.19369997 0.041600097 -0.17228757 -0.27223986 -0.021833288 -0.13628325 -0.18156458
-0.036621533 -0.185368 -0.35220224 -0.3103688 -0.009936675 0.14313446 -0.21335703 -0.14276728
-0.24975806 -0.33070266 -0.30035788 0.057608876 -0.12898728 -0.109060995 -0.26210663 0.09448377

context_transformer_0/ffn_layer_0/norm/mul;context_transformer_0/ffn_layer_0/norm/add;context_transformer_0/ffn_layer_1/intermediate_dense/einsum/Einsum;context_transformer_0/ffn_layer_1/intermediate_dense/Relu;context_transformer_0/ffn_layer_1/intermediate_dense/add f4 [32, 32]
00000000: 056a ce3c a16d 8e3e 5e8a 3d3e 908a 86bc
00000010: 7cfb 4c3d 8204 0b3c ed07 353d 032c d73d
00000020: e76f 58be 5daa 1dbe 9bc0 4cbd a70f 933b
00000030: 5299 093e 9b21 253b f4e3 98bd 6c6c 803d
00000040: 3fdc 3dbe 2faf bd3a 6399 133e 516b 51bd
00000050: 0c1b a0bd 1b92 3a3e 8ed2 203d 2231 9d3d
00000060: 46fc 08bd ac63 3f3e b4e9 553e 8556 8abd
00000070: d63e 90be 8c6d 27be faff 5bbd 1d00 313e
00000080: d285 dd3d d7b3 0a3f d016 d73e 7c76 89bb
00000090: 413c 8c3c 45c8 b4bd 39d2 393f 8b26 e0bc
000000a0: 1cca 153e a018 943e 02ef cc3d 5ad5 dcbc
000000b0: 8521 9c3d 6d4d f8be 2814 43bd ecec 783e
000000c0: d2b8 a63e f30f 273d 2c33 6e3e c107 94bd
000000d0: f432 c6be 0fc3 913e 3755 b33e 5d69 333e
000000e0: 2336 263e a6f9 123c b9f6 bfbd 8e70 843e
000000f0: c3fb 23be a7e4 283d 4266 393d ed1f 5d3e
00000100: 3fe6 e7bd 3c69 543e fe0d 9fbd fd47 33bd
00000110: d948 323c 1a89 5a3b 493e 563d 3dc4 973e
00000120: 9a76 5e3c 16e6 d63d 511a 82be eee9 04be
00000130: 3e06 da3b b7eb 0f3c f1b1 c83c 7e4a 043f
00000140: 47a6 29be e779 523d 96a8 bb3d 751f 98bd
00000150: 7121 a3bd a8bf cbbd 4b1f 4fbd 02e7 3c3e
00000160: ef33 7ebe d62d 0dbd 7633 2c3e 3eee b7bd
00000170: b84e 1bbf 0a5a 103d 9230 e1bd a37a 6a3e
00000180: d8bc 2e3c 310b e2ba f14a 1a3d 8316 0e3d
00000190: 26af 08bb f603 993a 5cff 00ba f673 f73b
000001a0: c57e f4bb 4458 92bb 73aa 663c da19 c9bb
000001b0: cfac dd3c 8a1f 80bc bc50 163c cc96 213c
000001c0: 164a a7bb dcac 703b 92bf 803c 88bf 6fbc
000001d0: 32c0 743b 2f6f 603c 3750 ba3b 3059 2c3b
000001e0: 8ecd 33bc 1011 11bc 646f c03c 245d ce3b
000001f0: cbb9 8fbc 9213 d8bb 80b1 e43c 1a5f 49ba
00000200: 4e0f a03e 62fd 0d3e e299 233e e0bf af3c
00000210: c633 063e 3e11 993d 624c 003e d3af 083e
00000220: c223 1a3e c0d7 78bd ea7e 823e ae32 36be
00000230: d338 493e b4fc 55be ce55 b9be fcce cebe
00000240: 15f6 7dbe 3c33 a5bd 1f8f 0fbe f61f 64be
00000250: b1ae d6bc 6ce8 f1bc 1e0c 83bb 1aec f53d
00000260: d5ee c4be da85 c2bd 9e02 c1bb ab93 333e
00000270: f98c 54be 0ffb 90bd d6b2 2c3e 98b2 6a3e
00000280: 7e4f a43e 8cdf 6fbd 52fd c43d f6df 0c3e
00000290: ecea 53be a1de 32be fab4 d7bd 6432 25be
000002a0: 61a4 b33c 166d e13d 8543 5fbe 63a2 27bb
000002b0: c804 3cbe 4864 18be 36e5 153d 559d 2e3e
000002c0: 8097 d13d 9985 a73d 8f6b 4bbc a08d bbba
000002d0: fc00 fd3d 9ca4 b0bd f968 85bd 3348 2ebe
000002e0: e28c 9e3e 9d9e 3d3d 46e5 f9bd 65db d4bd
000002f0: 6f3b 513e b158 bbbc 552b 5d3e 5ce7 5abe
00000300: ecb9 a0be 6af0 07be e4ad f53d 50ef d3bd
00000310: bf13 3ebe 056b 9cbc ac42 e3bc 6ecb ed3d
00000320: 0d98 fcbd 4b45 5ebd 050c 07bd 0bc8 47bd
00000330: 50ef 063e f495 e8bd a8d0 6ebd 2f3f 193e
00000340: 2422 67bc 2ad6 d0be 3526 313e 3ac8 27be
00000350: ee4e cc3d d731 2a3d c728 ebbe 2c8c a93d
00000360: 8dc0 ff3c d844 87bd 58aa 883c dd6e 433e
00000370: 5d9c 5fbd 03fc 96be cd1f c4bc d268 323e
00000380: 500e 44bd 0af5 363b 5127 c5bd 7388 0e3e
00000390: 6c03 aa3d 6e85 323e 2b0e 8a3d 16b3 03be
000003a0: 467d c23d cf3c 403e 7f7a 58be 6878 e9bc
000003b0: 1655 063e 86c8 6fbe 99d5 42bc c560 e4bb
000003c0: 7cf9 11be 2273 6c3e 7263 ad3c eeb8 56be
000003d0: 4495 bb3d 77d8 77bd d9eb 61bc 78c1 673e
000003e0: b323 19bd 8550 143e 8a3c 103c 13f9 b73c
000003f0: af5f 44be bf63 463c 2b38 2e3e 7efb ad3c
0.025197038 0.27818015 0.18509814 -0.016423494 0.05004452 0.008484961 0.04419701 0.105064414
-0.21136437 -0.1539702 -0.04998837 0.00448795 0.13437393 0.0025197032 -0.074653536 0.0627068
-0.18541048 0.0014471764 0.14413981 -0.051127736 -0.07817659 0.18219797 0.0392633 0.07675387
-0.03344371 0.18690366 0.20889932 -0.067547835 -0.2817294 -0.16350383 -0.053710915 0.172852
0.1081654 0.54180664 0.42009592 -0.0041950326 0.017118575 -0.08827261 0.725864 -0.027362129
0.1462788 0.28925037 0.100065246 -0.026957203 0.07623581 -0.4849657 -0.047626644 0.24309129
0.32562882 0.040786695 0.23261708 -0.072280414 -0.3871075 0.2846913 0.3502595 0.17520662
0.16231589 0.008970654 -0.093732305 0.25867122 -0.16014008 0.041233685 0.045263536 0.2159421
-0.11323213 0.20743269 -0.07766341 -0.043769825 0.010881626 0.003334588 0.052305494 0.29641905
0.0135780815 0.10493104 -0.25410703 -0.12979862 0.006653576 0.008784226 0.024498912 0.51676166
-0.16567336 0.051385786 0.091630146 -0.07427875 -0.07965363 -0.09948665 -0.050566953 0.18447497
-0.24824499 -0.03446754 0.16816506 -0.08980988 -0.6066699 0.035242118 -0.10995592 0.22898345
0.010665141 -0.0017245767 0.037669126 0.034689438 -0.002085635 0.0011674154 -0.0004920864 0.0075516654
-0.007461401 -0.0044660885 0.014078724 -0.006137115 0.02705994 -0.015640039 0.009174522 0.009862613
-0.0051052673 0.0036724126 0.015716348 -0.014633067 0.0037346003 0.013698383 0.005685832 0.0026298277
-0.010974301 -0.008854166 0.023490615 0.0062977243 -0.017544648 -0.00659413 0.02791667 -0.0007681713
0.31261677 0.13866189 0.1597667 0.021453798 0.13105687 0.07473992 0.12529138 0.13348322
0.15052703 -0.06075263 0.25487453 -0.1779277 0.19650583 -0.2089718 -0.36198276 -0.40392292
-0.24800904 -0.08066413 -0.1401944 -0.22277817 -0.026206346 -0.029529773 -0.003999247 0.120079234
-0.38463464 -0.094981864 -0.0058902046 0.175368 -0.20756902 -0.070791356 0.16865095 0.2291969
0.32091898 -0.0585628 0.096186295 0.1375731 -0.20695084 -0.17467739 -0.105325654 -0.16132504
0.021928968 0.110071346 -0.218031 -0.0025578968 -0.18361199 -0.14882004 0.036595546 0.17052205
0.102339745 0.081797786 -0.012415781 -0.0014309175 0.123537034 -0.08625147 -0.065141626 -0.1701973
0.3096686 0.046293844 -0.122019336 -0.10393409 0.20432828 -0.02286944 0.21598561 -0.21377319
-0.31391847 -0.13275304 0.11996058 -0.103483796 -0.1856222 -0.019094 -0.027741753 0.11611067
-0.12333689 -0.0542653 -0.032970447 -0.04877476 0.13177228 -0.11356726 -0.05830446 0.14965509
-0.014107261 -0.40788394 0.17299731 -0.16384974 0.09975992 0.041551437 -0.45929548 0.08278689
0.031219745 -0.06604928 0.016682789 0.1908526 -0.05459248 -0.29489145 -0.023940945 0.17422798
-0.047865212 0.002791705 -0.0962664 0.13919239 0.08301434 0.17433712 0.067409836 -0.12861285
0.0949655 0.18773197 -0.21140479 -0.028499797 0.13118395 -0.23416337 -0.011891746 -0.0069695436
-0.14255327 0.23090795 0.021165583 -0.20968983 0.091593295 -0.06050917 -0.013789141 0.22632396
-0.03738756 0.14483841 0.008803496 0.022457635 -0.19177125 0.012108742 0.17013614 0.021238085

context_transformer_0/ffn_layer_2/intermediate_dense/einsum/Einsum;context_transformer_0/ffn_layer_2/intermediate_dense/Relu;context_transformer_0/ffn_layer_2/intermediate_dense/add f4 [32]
00000000: 0e36 52be b229 a1bd c2fd d1bd f38f 80be
00000010: b282 a8be 569d bfbe 3ca1 9d3d 846a 93be
00000020: cab1 0e3d 6c71 6abd b8a5 0bbc 89ca 80be
00000030: 4db1 03be 2c1e 98be 0573 babe 3c45 02bf
00000040: 4d55 8dbe eb28 89be 30b9 79be 1688 f5bd
00000050: aebe d1be 57eb 6cbe 6698 9dbd b915 9dbe
00000060: d1ed 31be 51b0 03be 8545 71bc e614 94bd
00000070: 2607 0cbe 06dd 6ebd 9460 41be 7676 a8be
-0.20528433 -0.07869281 -0.102534786 -0.25109825 -0.32912213 -0.37424725 0.07696769 -0.28792202
0.03483752 -0.057237074 -0.008523397 -0.25154522 -0.12860604 -0.2971052 -0.36415878 -0.50886893
-0.27604142 -0.2678903 -0.2438705 -0.11988847 -0.4096579 -0.2313665 -0.07695083 -0.30680636
-0.17375876 -0.12860228 -0.014726047 -0.072305486 -0.13674602 -0.058316253 -0.18884498 -0.3290288

context_transformer_0/ffn_layer_1/norm/mul;context_transformer_0/ffn_layer_1/norm/add;context_transformer_0/ffn_layer_2/intermediate_dense/einsum/Einsum;context_transformer_0/ffn_layer_2/intermediate_dense/Relu;context_transformer_0/ffn_layer_2/intermediate_dense/add f4 [32, 32]
00000000: cc7d e63c ad7c e33e 70ea be3e 023c 6abd
00000010: 6fef 7fbd a572 2c3c 3a4c bf3d 7e1e 053f
00000020: 7de8 7ebd eb26 a3be 0b17 84be 231c c1bd
00000030: 7ff8 cbbd ffb6 b9bd 3005 b43d b3f5 143e
00000040: bb4c b2bd 6bd0 893e 9ac9 7c3c b645 5dbd
00000050: bf3f 7d3d 300f 37be 5916 323e afb2 2abe
00000060: 5dcc 6f3e ead6 dc3b f6a9 483e fc4a 56be
00000070: 8bd3 91be e0c3 0dbd 7d61 06be 9884 27be
00000080: 7c31 473c 4e07 d13c b1e6 ec3c 0ad3 303c
00000090: ed99 3dbc 57fb 1dbc f65d dbbb a1db 453c
000000a0: e158 093c dd41 c3bc ac82 bcbc 1f15 d93b
000000b0: 8a75 85b9 2d6a 2cbc 4838 d9bb d1f5 813b
000000c0: da60 8fbb 8837 1b3c 8376 853c 0c6f ddbb
000000d0: 5391 3dbb 539c 26bc 7cee fe3b 0d57 4cbc
000000e0: 5e0b 35bc d878 d83b 2b0d e53c c745 a03b
000000f0: a2d6 613b c10e aabc 260f 0d3c a94e c939
00000100: d2e8 503e 092c e93d 0f63 10be f4de 91bb
00000110: 9551 3a3e 339a 4dbe 0e5b a3bc 5790 d4bd
00000120: 7d00 1ebe 0088 703d 6a57 94be 6ade e33d
00000130: 65f9 d5bd b893 0cbe 23e8 a7be 3912 0b3e
00000140: cde4 a73d e831 953d afe4 d13c c9ad f6bc
00000150: 946f 0f3d 317e efbe 2543 21be a181 82be
00000160: 5e23 0c3d edd7 8e3c ffac 0f3e 019c 853c
00000170: 0eb6 8bbd 317b c33c 8198 14bd 7b5b e83d
00000180: 8822 12be e07c 1fbd 15f8 d8bd 1aab aabe
00000190: 4015 eb3d 2ec2 06be 0ff4 80bd d40f 4d3e
000001a0: cbc7 55be 7c57 1ebe 41b6 9e3c ae31 89bc
000001b0: bbf8 a53d e9d3 acbe e35b 183e 416f 853e
000001c0: 8624 4a3d ded6 973c e197 6e3e 1db5 313e
000001d0: 52f6 d63d 8913 703e 93e8 afbd 44b7 863d
000001e0: 2c22 183e 378f 6a3e 3fca 14bd 5707 913d
000001f0: 5614 a5bd a706 2cbe bb7e a33c 3333 0e3d
00000200: 5b5d 61bd 654a 4fbd 3b70 7fbe cd56 47bd
00000210: 43bb 223e 11ef 68bd 790f 19be 2606 1e3e
00000220: 5026 00be 4417 1f3e d0df 273d 6057 d03d
00000230: e136 6fbd 67a7 dabc a192 153e 2845 863e
00000240: b5f6 c73d 96b6 2fbc 4b89 8a3e 4ada e8bd
00000250: b31b 663c b958 e4bc aa1e 273e f5f1 853c
00000260: 0867 51bc 0b4d 583d e612 89be fd3a f8bd
00000270: 5158 40bd 3664 f93d 0522 42be 3c85 b43d
00000280: 013a a83d f788 4c3d 71f8 bb3c 4963 393e
00000290: 38c5 833d 5a19 a4bd b9ac 3bbc 7b7c d43d
000002a0: 565f ca3e 7262 fe3c 43aa 80be b987 25bd
000002b0: 7550 91bc 1cab ab3d f76a 98be ea15 be3d
000002c0: e96a 543e 8460 f6bc b8c4 86be f1f6 063e
000002d0: 1664 8abe 8b85 a8be 85a2 4dbe 315d d13d
000002e0: 91c7 82be 6231 a43d d8c1 0a3e 3740 f8bc
000002f0: 0f2a 70be a17d a83d bfef 77bd 0525 2b3d
00000300: 29aa 783d cde4 cc3d 3d0c ed3d 94b2 303e
00000310: 7b6a 84be 45b3 02be 3ff4 41bd fd44 9cbd
00000320: 0404 1bbe 8b8c fe3b 81fa 7cbd 0d91 41be
00000330: c546 023e f709 17be 22f6 873e 7db2 05be
00000340: c4de 60bd d7e5 3cbe 47bc 68bc d901 a13d
00000350: 06a5 edbd de41 58be b4ea b83e f231 3bbd
00000360: 57f9 383e fdc3 87be ac2c cbbd 0657 073d
00000370: 8bc1 89bd 95f3 283d 3dc4 653e 5faf 933e
00000380: be97 ba3d 6db7 3fbc ae5a d3bb be4d 8bbc
00000390: 1bf9 50be e64a bc3d 7b8a 563d b12e 4abe
000003a0: 628a cf3d 6cac 94be 1900 f03a c860 46be
000003b0: bdc0 a83d cd92 b5bd b427 923d c03e 93bd
000003c0: 389f 1e3d 6e85 4e3e 6ff7 64bd a275 35be
000003d0: 685a 423e 745a 66be 275f 3ebd 1927 023e
000003e0: 265d 87be 5032 adbe 1951 ba3d 0e9f cc3d
000003f0: 5639 153e 1602 a4be 9bf5 fbbc 281a 2c3e
0.028136156 0.44431058 0.37288237 -0.057186134 -0.0624842 0.01052538 0.09340711 0.5199965
-0.062233437 -0.3186563 -0.2579883 -0.09429195 -0.09959506 -0.09068107 0.08790052 0.14546852
-0.087060414 0.26916823 0.015428925 -0.05402156 0.06182837 -0.17876887 0.17391337 -0.16669725
0.23417802 0.006739487 0.19596085 -0.20927042 -0.28481707 -0.03461063 -0.13123126 -0.16359174
0.012157794 0.025516178 0.028918596 0.010792503 -0.011572343 -0.009642444 -0.0066945506 0.012076289
0.008383007 -0.023835117 -0.023011528 0.0066248323 -0.0002545531 -0.010523361 -0.0066290237 0.003966071
-0.0043755593 0.009473689 0.016291862 -0.0067576226 -0.0028925731 -0.010169107 0.0077798944 -0.012471926
-0.011050073 0.0066062026 0.02796038 0.0048911306 0.0034460207 -0.020758988 0.008609569 0.00038396314
0.20401314 0.11385352 -0.14100288 -0.004451627 0.18195184 -0.20078354 -0.01994088 -0.10379093
-0.15429874 0.05872345 -0.28972942 0.111264065 -0.10447959 -0.13728225 -0.32794294 0.1358117
0.08197937 0.072849095 0.02562174 -0.030112164 0.03501852 -0.46775964 -0.1574827 -0.25489524
0.034213416 0.017436946 0.14030837 0.01630974 -0.068218336 0.023862453 -0.03627825 0.113455735
-0.14270985 -0.03893745 -0.10594193 -0.33333665 0.114786625 -0.13160011 -0.062965505 0.20025569
-0.20876996 -0.1546306 0.019374015 -0.016747322 0.08104082 -0.33755425 0.14878802 0.26061442
0.049351238 0.018535074 0.23300125 0.17354245 0.104962006 0.23444952 -0.08589282 0.06577924
0.14856786 0.22906195 -0.03632569 0.07081478 -0.080605194 -0.16799413 0.01995789 0.034716796
-0.05502067 -0.050608058 -0.24945156 -0.048666764 0.15891747 -0.056868616 -0.14947309 0.15432033
-0.12514615 0.15536219 0.04098493 0.101729155 -0.058401946 -0.026691152 0.14606716 0.26224637
0.097638525 -0.010724684 0.2705787 -0.1136976 0.01404469 -0.027874338 0.16320291 0.016350726
-0.012780912 0.05280785 -0.2677223 -0.12120626 -0.046959225 0.12177317 -0.1895829 0.08814475
0.08214188 0.049935307 0.022945615 0.1810428 0.06434101 -0.08012648 -0.0114547545 0.10375305
0.3952586 0.031052802 -0.251299 -0.04041264 -0.01773856 0.08382246 -0.29769108 0.092815235
0.20743908 -0.03007532 -0.2632196 0.13180138 -0.27029485 -0.32914385 -0.20081528 0.10222853
-0.25542882 0.080172315 0.13550508 -0.030304058 -0.23453544 0.08227087 -0.060531374 0.04178335
0.060709152 0.10004578 0.115746 0.17255622 -0.25862488 -0.12763698 -0.04735207 -0.07630346
-0.1513825 0.007768219 -0.061762337 -0.18902989 0.12722309 -0.14749895 0.26554972 -0.13056369
-0.054899946 -0.18447052 -0.014205045 0.078616805 -0.11603741 -0.21118876 0.36116564 -0.04570193
0.18063866 -0.26516715 -0.0992063 0.033041976 -0.067263685 0.041247923 0.2243814 0.28844735
0.09110974 -0.011701447 -0.006450019 -0.017004844 -0.20407526 0.09193973 0.05237816 -0.19744374
0.10133816 -0.29037797 0.0018310576 -0.19372857 0.08239887 -0.08865891 0.07136479 -0.07189703
0.03872606 0.20168087 -0.055900034 -0.17720655 0.189798 -0.22495443 -0.046477463 0.12710227
-0.26438254 -0.33827448 0.090974994 0.09991275 0.14572653 -0.3203284 -0.030756762 0.16806853

context_transformer_0/ffn_layer_3/intermediate_dense/einsum/Einsum;context_transformer_0/ffn_layer_3/intermediate_dense/Relu;context_transformer_0/ffn_layer_3/intermediate_dense/add f4 [32]
00000000: 6d3a 8fbd ad7e 43be 2cad 78be c081 36be
00000010: 9b25 d4bd 5f0b b9bd b93e 4dbe 0c93 babd
00000020: 6629 87be a6d8 48be 2a47 8ebd 2808 12be
00000030: 53f3 9fbd 060a 71be 20fa 30be 8bd7 3bbe
00000040: a7e6 f7bd a193 81be a35e 8fbe 89c4 893c
00000050: 3771 06bd 2a83 95bd 6e47 99be f676 95be
00000060: 8ee1 77be e12b 5cbd aece fcbd 67db cabd
00000070: acae 40bd 47b9 80be 51ec 263c 821a 0bbd
-0.06993566 -0.19091292 -0.2428481 -0.17822933 -0.10358735 -0.09035372 -0.20043458 -0.09110078
-0.26398772 -0.19613895 -0.06947167 -0.14260924 -0.07810082 -0.2353898 -0.17282915 -0.18343942
-0.1210454 -0.25307944 -0.2800189 0.016817348 -0.032822814 -0.07300408 -0.2993731 -0.29192322
-0.24207136 -0.053752784 -0.123441085 -0.09905129 -0.04704158 -0.25141355 0.010188178 -0.033960827
